2.LogisticRegression/dense-mnist.ckpt (torch, 284575 bytes, 4 tensors)

fc1.weight f4 [89, 784]
000000 0e e0 37 3c 8e 8c 9a bc 25 55 89 39 ec 68 a2 bc
       0.011222852 -0.01886585 0.00026194114 -0.019825421
000010 a3 ca a7 bc 85 cf 0e 3c e7 55 0c bd 6a 91 95 3c
       -0.020482367 0.008716469 -0.03426161 0.018257815
000020 25 2b f0 3a 13 58 e0 bc ba b2 bd bc 03 27 83 3c
       0.0018323405 -0.027385747 -0.023156513 0.016009813
000030 d4 f0 82 3b 83 e4 3a 3b 65 db a4 3c f4 b8 c3 3c
       0.003995994 0.0028517551 0.020124147 0.023891903
000040 4a 14 02 3c 32 a1 00 bd 4c 67 a7 bc 93 d0 c9 3c
       0.007939408 -0.031403728 -0.020434998 0.024635589
000050 b3 8b a2 bc ca eb 32 bb b7 5e 9b ba 54 0d 10 bd
       -0.019842004 -0.0027301186 -0.0011853789 -0.03516896
000060 6e 85 de 3c 8a 9a 00 3d 96 b9 0f bd aa 56 ac 3c
       0.027163234 0.03139738 -0.035089098 0.021037418
000070 35 68 10 3d c7 56 9b bc b5 28 b3 3c 5e 50 03 bd
       0.03525563 -0.018962277 0.021869997 -0.032059066
000080 71 d7 cd 3c 27 28 e9 3c 55 c9 ab 3d 2e 6c 08 3d
       0.025127145 0.028461529 0.083880104 0.033306293
000090 01 f1 e2 bc 98 a0 c9 ba 71 c9 3f bd 16 b4 0a bd
       -0.02770281 -0.0015382944 -0.04682297 -0.03386315
0000a0 86 d4 f5 bc 69 b7 4c ba 2a c4 85 bd fc b9 98 bc
       -0.030008566 -0.00078093127 -0.06531556 -0.018643372
0000b0 17 cf 5e 3d c8 9b 59 bb f4 a9 04 bd b2 cf 5b bd
       0.054396715 -0.0033204425 -0.032388642 -0.05366487
0000c0 e3 0e ac bc c6 37 d2 3c 0f 8b f0 bc d2 4e 1a 3c
       -0.021003192 0.02566136 -0.029363183 0.009418206
0000d0 7e 27 fd bc 05 4d da 3c 25 76 cc 3b da 92 b5 3c
       -0.03090262 0.026648054 0.00623967 0.02216475
0000e0 85 e8 ed 3c 53 09 cc 3c 93 74 47 3c 09 15 90 3c
       0.029041538 0.02490679 0.01217379 0.017588155
0000f0 67 75 1d bb 9f d7 41 bd 9d 16 03 bd 3d 1b 62 3c
       -0.0024026276 -0.047324773 -0.032003988 0.013800439
000100 72 3a 3c bd 11 d4 a0 bd fd e2 c3 bc 12 3a 7e bd
       -0.045954175 -0.078529485 -0.023911947 -0.0620671
000110 3b 95 95 bc 29 93 83 bd a9 67 85 bd ac 75 e2 bd
       -0.018259635 -0.06424553 -0.06513912 -0.110576004
000120 7f f2 94 bd f9 59 b0 bd 3e d0 e3 bd 6d 63 85 bd
       -0.07272815 -0.08610911 -0.111237034 -0.065131046
000130 b9 71 91 bd ae f2 3e bd 2d a4 0e bd 3f 27 00 bd
       -0.07101769 -0.046618156 -0.03482454 -0.031287428
000140 a5 33 29 3d b2 61 dc 3c f3 56 8d bc 6c 54 87 3c
       0.041309018 0.026902054 -0.017253375 0.016519748
000150 4a 5c 04 3b b7 ad 8f 3a 01 28 9f bc dd cd 5d 3d
       0.002019661 0.0010961805 -0.019428255 0.054151405
000160 04 fb 8b 3c 5d be b2 bc 1a 41 fd 3b 63 56 b0 3c
       0.017087467 -0.021819288 0.007728708 0.021525567
000170 ec dd c0 3c 31 65 ba bc 0c df 6e bc cd d3 65 bc
       0.02354332 -0.02275333 -0.014579546 -0.014027548
000180 c5 56 bd 38 40 c5 0a 3b e0 c4 2d 3d ed ab 9b bc
       9.0283844e-05 0.00211747 0.042424083 -0.019002879
000190 2e c0 fa bc 6b 6d 4f bd c1 11 b3 bd 79 1b f4 bd
       -0.030609217 -0.05064146 -0.08743621 -0.119193025
0001a0 df a2 8e bd 54 ac b5 bd fc 21 be bd 6d bb 83 bd
       -0.06964659 -0.088707596 -0.09283826 -0.06432233
0001b0 f5 58 a4 ba 10 c5 07 bd 45 bd 64 ba 6d 5a 0d bd
       -0.0012538718 -0.033146918 -0.0008725713 -0.034510065
0001c0 05 50 a6 bc 3d 08 00 3d 70 c3 cf bc ec e5 ab bb
       -0.020301828 0.031257857 -0.025361747 -0.0052459147
0001d0 0b 1d bd bc bc 9a 9c 39 7c c6 93 3c b3 cd 2a 3d
       -0.023085138 0.00029869925 0.01803898 0.041700076
0001e0 b2 5c 0d 3d da 52 4f 3d 52 a3 82 3d de 07 35 3d
       0.03451223 0.050616123 0.06378807 0.044196956
0001f0 9b 9d 1b 3c 2e 35 32 3d 74 8b 38 3d b1 bf 74 3c
       0.009498025 0.043507747 0.045054868 0.014938281
000200 bc 67 a6 3b 93 b3 6b bd 3f 87 30 bd ca 41 db bd
       0.005078284 -0.057544302 -0.04309773 -0.10705908
000210 ab f8 e2 bd e6 95 e0 bd 30 81 a5 bd ba 23 82 bd
       -0.11082586 -0.10966091 -0.08081281 -0.063544706
000220 a2 16 c6 bd 17 00 69 bc 1f 56 70 3a 26 e1 e4 bb
       -0.096722856 -0.014221213 0.00091681065 -0.0069848476
000230 58 8b e7 3c 0e bb 07 bd 6d 06 01 bd 71 ac 22 3c
       0.028264686 -0.033137374 -0.03150027 0.009928809
000240 01 6c 7c 3c 4b 9a 1d 3d 11 f9 8b 3c 53 53 86 3d
       0.0154066095 0.038477223 0.017086538 0.065588616
000250 dd ce 43 3d 99 34 dc bc 9c 80 64 3c 95 e1 54 3c
       0.047804702 -0.02688055 0.0139466785 0.012993236
000260 b2 a9 38 3d d7 3e 2a 3d 88 96 5e 3d 34 50 3d 3c
       0.04508371 0.041563835 0.054342777 0.011554766
000270 37 74 e4 3c d8 95 59 bc c1 1e c7 bc 8a da 41 bd
       0.027887447 -0.013280354 -0.024306657 -0.047327556
000280 b1 27 bb bd ee f8 b3 bd ea 25 be bd d6 7e b1 bd
       -0.0913843 -0.08787714 -0.09284575 -0.0866677
000290 c0 4e bf bd 40 65 32 bc 1d 07 af 3c 01 80 fa bc
       -0.09341192 -0.010888398 0.021365697 -0.030578615
0002a0 c1 b8 ef bc 69 8a 45 3c c0 17 39 bc f1 17 68 3d
       -0.029262902 0.012056925 -0.011297166 0.056663457
0002b0 7c a8 13 3d 05 7d 51 3d 8a f8 d8 3c 7b 51 93 3d
       0.03604935 0.05114462 0.0264857 0.071932755
0002c0 4e 6b 99 3d a8 69 56 3c c7 84 24 3d 67 85 a2 3d
       0.0749117 0.013086714 0.04016569 0.07935601
0002d0 ab 87 09 3d d7 55 77 3d da 23 41 3d 2a 78 49 3d
       0.03357665 0.060384598 0.04715333 0.049186863
0002e0 3a 0f ca 3d 68 d7 8b 3d 2a 70 3d 3d b1 12 36 bd
       0.098661855 0.06828195 0.046249546 -0.04445142
0002f0 be 87 c9 bc 7e 07 83 bd 5c c4 92 bd 56 52 b1 bd
       -0.02460086 -0.063979134 -0.07166359 -0.086582825
000300 f6 ad b9 bd 90 d9 12 bd 97 90 79 bd 60 60 4e bc
       -0.090663835 -0.035852015 -0.060928907 -0.01259622
000310 3a 92 c0 bb 1b 18 cc 3a b0 30 f3 3c 49 46 5d 3d
       -0.0058768066 0.0015571149 0.029686302 0.054022107
000320 0e e5 1f 3d c6 0a 35 3d dd dd 3e 3d ef 53 28 3d
       0.039036803 0.044199727 0.046598304 0.04109567
000330 9b de 1e 3d d2 99 ad 3d f4 b3 17 3d 26 4f 89 3d
       0.038786512 0.084766045 0.03703685 0.067045495
000340 14 9e 29 3d 87 de ac 3d 22 3a d0 3d 28 73 86 3d
       0.04141052 0.08440881 0.10167338 0.06564933
000350 6e e0 9f 3d a5 3e a1 3d b9 70 6f 3d d1 48 8c 3d
       0.078064784 0.078732766 0.05845711 0.06849826
000360 56 9b eb 3c 88 d3 05 3b 65 39 13 bd 8d 55 e4 bc
       0.028760593 0.0020420272 -0.035943408 -0.027872825
000370 9e 52 a8 bd 7e 71 e6 bc 59 78 bd bc cb 16 86 bc
       -0.08218883 -0.02813029 -0.023128675 -0.01636829
000380 a3 5b 0a 3c 72 37 8c 3c 43 d2 0e 3d 01 53 04 3d
       0.008444699 0.017116282 0.03486849 0.03230572
000390 b6 04 d5 3d 4a 3f a0 3d f1 77 eb 3c 59 00 bb 3d
       0.10401289 0.078245714 0.028743716 0.09130926
0003a0 cb 60 80 3d b4 9d f9 3c 3a 73 31 3d 5a cf b0 3d
       0.06268462 0.030470707 0.04332278 0.08633299
0003b0 ba 87 bf 3d 71 f3 b6 3d 82 5b e7 3d 16 ae d8 3d
       0.0935206 0.089331515 0.112967506 0.10580079
0003c0 09 3d cc 3d b8 94 e8 3d 0a a6 bc 3d 57 46 4d 3d
       0.09972579 0.11356491 0.09211357 0.05011591
0003d0 05 95 ad 3c b1 6c 6f 3c 0b 1e 14 3d bb 59 2d bc
       0.021189222 0.014613316 0.036161464 -0.010580475
0003e0 bf 38 a0 bd 7f d8 d5 bd e3 88 60 bd 8a bc 1e 3d
       -0.078233235 -0.10441684 -0.054818045 0.038754024
0003f0 ef 7a 83 3d 63 7f af 3b 79 e9 8c 3d ec 4b 87 3d
       0.06419932 0.005355762 0.06880469 0.06606278

fc1.bias f4 [89]
000000 f9 65 6e 3a 0f 77 b2 3d 3a 2a 82 bc e8 bf 98 3d
       0.00090941746 0.08714115 -0.015889276 0.07458478
000010 e6 c6 9b 3d 6c 66 0e 3c 55 24 1c bd 0b 63 40 3d
       0.07606296 0.008691411 -0.038120586 0.046969455
000020 60 9c 8d bc 99 47 3e 3d cc 99 21 bd 18 2f 7d bd
       -0.01728648 0.046455 -0.039453313 -0.06181249
000030 10 e8 84 3d 9e 18 8f bc 43 ce bd 3d b9 1f f4 bc
       0.06489575 -0.017467793 0.09267857 -0.029800283
000040 9d 9c 3f bc 9d dd 26 3d 0f 84 92 3c 2f 4c 39 bd
       -0.011695054 0.04073869 0.017885236 -0.04523867
000050 5e 19 98 3a 3a b4 00 3e 1a 26 6b 3b 8d 30 5c 3d
       0.001160424 0.12568751 0.0035880865 0.05375724
000060 de 77 1e 3d 65 30 e3 3d b4 70 ef 3c 48 b4 80 bd
       0.038688533 0.11093215 0.029228546 -0.06284386
000070 b8 75 ef 3c 0a 8f 86 bc 59 d9 16 3d e6 44 9b bb
       0.029230937 -0.016425628 0.036828373 -0.004738438
000080 07 35 79 3c 04 4e b2 3c 87 5b 50 3d 23 10 9a 3d
       0.015210397 0.021765716 0.050868537 0.07522609
000090 42 ca 83 bc 1a 8c 8c 3d 82 3b 09 3e 80 b4 ea bc
       -0.016087655 0.0686266 0.13401607 -0.028650522
0000a0 09 d6 4a 3d 0d 00 d7 b7 ee 37 ba bc 80 f9 dd 3b
       0.049520526 -2.563002e-05 -0.022731747 0.0067741275
0000b0 73 58 e6 3d 52 ae 0e ba ef 66 03 3e 8f 61 39 bd
       0.11247339 -0.0005442846 0.12832235 -0.045259055
0000c0 b5 b8 b1 bc d0 e3 53 3d 9e 5e 99 3c 2a e9 43 3d
       -0.02169452 0.05173093 0.018721875 0.047829784
0000d0 d1 24 fa 3c ff c6 de bc e5 8b 32 bc 5b cf b7 3d
       0.030535134 -0.027194498 -0.010897611 0.08975097
0000e0 f7 d9 24 3d fc 26 42 3c 17 d8 95 3d 5f 27 8a bc
       0.04024693 0.011850115 0.073166065 -0.016864477
0000f0 09 cd a7 3d e1 02 cd 3d 05 61 f9 bc 5f 6e 24 3e
       0.08193404 0.10010315 -0.03044177 0.16057728
000100 3f ed 39 3d 41 e1 b8 3d 1e 27 55 3d 0f 3b ab bc
       0.04539227 0.09027339 0.05203926 -0.020902185
000110 72 45 7a 3d 15 91 9e 3d 38 d0 dd 3d 06 7a f9 3b
       0.061101384 0.07742516 0.1083073 0.0076134233
000120 9c ed 95 bb 55 4f 6e 3c 5e bc 2d 3d 68 0b 00 3d
       -0.0045754444 0.014545281 0.04241597 0.031260878
000130 35 79 bf bc 53 43 f2 bb b9 05 c3 3d 20 69 e9 3d
       -0.023373226 -0.0073932796 0.09522576 0.11397004
000140 ec 99 84 3d a1 4e 8b bd 56 54 e4 3d c8 36 35 3d
       0.06474671 -0.06802107 0.11148898 0.044241697
000150 5f 58 ca bc 15 ca 02 3c c9 2f d6 3b a6 b2 bd 3d
       -0.024700342 0.00798275 0.006536458 0.0926259
000160 e6 c2 88 3d
       0.06677799

fc2.weight f4 [10, 89]
000000 aa 98 b2 3d 37 65 84 be ad 4a 0e be 90 70 a5 3d
       0.087205246 -0.2585847 -0.13895674 0.0807811
000010 16 36 17 be 4f 28 65 bc 3b 0e 1e bd 86 2f 32 be
       -0.14766726 -0.013986661 -0.03858779 -0.17400941
000020 69 55 6e be c9 df 44 3e 45 5e ab 3d d3 13 43 3e
       -0.23274769 0.19225992 0.0836759 0.19050531
000030 c9 b1 bb 3d 1c 5a 43 be 9f bb 37 be 61 fe 78 be
       0.09164769 -0.19077343 -0.17942666 -0.24315788
000040 82 12 6a be f7 b6 44 3e 98 45 b5 3b e4 74 fa bc
       -0.22858623 0.1921042 0.005531978 -0.030573316
000050 70 8f 43 be f1 7c 3b be bf 83 87 3d 26 69 13 be
       -0.19097686 -0.1830938 0.066169254 -0.1439558
000060 4f f0 4e be d8 12 d4 bc 77 3a 0c be 76 88 9b 3d
       -0.20208858 -0.025887892 -0.13694178 0.07594387
000070 1d a1 60 bd b4 b8 ae 3d db 21 87 bd 76 e4 91 3d
       -0.05484115 0.08531323 -0.06598254 0.071236536
000080 06 af 02 3d 94 36 fa bd d9 55 e6 3d ba 3e fe bd
       0.031905197 -0.12217441 0.11246843 -0.12414308
000090 66 c8 b2 3d 02 ae ef bd 4c 28 dd 3c 10 60 12 be
       0.08729629 -0.11703111 0.026996754 -0.14294457
0000a0 2f b9 a2 3d 3d c3 df 3d 48 e2 c9 bc 23 ad 1c be
       0.07945477 0.109259106 -0.024644032 -0.15300421
0000b0 af 77 68 bd 71 c2 a8 3c 74 eb 54 be d3 a1 0d 3e
       -0.056754764 0.02060053 -0.20792943 0.13831262
0000c0 d7 37 1e be b8 63 1e 3e e4 40 0f 3e 8a b4 1c be
       -0.15450989 0.15467727 0.13989598 -0.15303245
0000d0 cf 47 ea bc 1b 3e 18 be 96 2e 94 3d e3 c7 4c be
       -0.028598694 -0.14867441 0.07235448 -0.19998126
0000e0 8b fe b2 bd c1 7a 13 3c 1d a1 31 be 43 4c de 3d
       -0.087399565 0.009001435 -0.17346616 0.108543895
0000f0 9d 91 ba bc 4c 5d f3 bd 6e 9b 8e bc df ea cb bd
       -0.022774512 -0.11883029 -0.017408099 -0.099569075
000100 6b 59 f0 3b 38 0f f6 3d 20 2f 9f 3d 49 72 24 be
       0.007334878 0.120146215 0.0777266 -0.16059221
000110 9b 55 39 be 98 23 45 be 3a f5 0c be 51 22 46 3e
       -0.18099062 -0.19251859 -0.13765422 0.19349028
000120 60 6c 2a 3d 86 16 c2 bd e1 15 46 3e 07 11 0e 3e
       0.04160726 -0.09476952 0.19344284 0.13873683
000130 dc 87 0b 3e fd 5d a6 bc e9 6c 0c 3e b3 ad 8e 3d
       0.13626045 -0.020308489 0.13713421 0.06966724
000140 d7 df 35 be 17 14 62 3d 31 73 b4 3d c1 45 13 3d
       -0.1776117 0.05519494 0.088110335 0.035955194
000150 c6 a2 99 bb 72 2a 1f be 64 82 14 3e 24 bd 4c be
       -0.0046885936 -0.15543535 0.14502865 -0.19994026
000160 ff 56 57 bd 80 4c 11 be 92 44 ad 3e 6f 64 41 be
       -0.0525732 -0.14189339 0.33841377 -0.18885969
000170 86 ab 90 bd 78 9b 2d 3e 77 cc 48 be 6e 3f d3 3d
       -0.070639655 0.16953838 -0.19609247 0.10314833
000180 0a 24 5f 3c 78 08 10 3e fe f4 30 bd f3 7a 47 3d
       0.013619432 0.1406573 -0.043202393 0.048701238
000190 1d 00 64 be 7a 6b 37 be 96 51 49 be 14 a9 15 3e
       -0.22265668 -0.17912093 -0.19660029 0.1461528
0001a0 15 f7 c3 bd 7a 08 96 3d 3d 7d 14 be 47 54 ce bd
       -0.095686115 0.073258355 -0.145009 -0.100746684
0001b0 15 7b 35 be 05 5a 29 be 1e 31 33 be 1b 05 f6 3d
       -0.17722733 -0.16538246 -0.17499205 0.120126925
0001c0 25 d0 e6 bd c7 a4 76 3d 98 e7 43 3e 34 a6 af 3d
       -0.11270169 0.060215738 0.19131315 0.085766226
0001d0 23 74 cd bb b6 ae a6 3d 61 d9 28 bd 4a b5 03 3e
       -0.006269948 0.08138792 -0.041222934 0.12862125
0001e0 73 f4 14 3d 32 14 0f 3d 72 7d 13 3e 31 18 6b bd
       0.036365937 0.03493137 0.14403322 -0.057396118
0001f0 e7 fc 30 3e c9 7d 04 3e e4 6b 1f bd 04 b7 42 be
       0.17283975 0.12938608 -0.038921252 -0.19015127
000200 11 15 ec 3c 89 e6 7e be 6f e8 4f be 31 a3 87 3d
       0.028818639 -0.2489263 -0.2030351 0.06622923
000210 fc 61 77 3d ff 16 d7 3d 71 4a 8a 3d 5e 35 7b bd
       0.06039618 0.10502433 0.0675248 -0.06133019
000220 36 4b fa bd 71 df 81 bd 9a b3 44 be 81 8b d1 bd
       -0.122213766 -0.06341446 -0.19209138 -0.102316864
000230 79 41 b0 3d b1 10 43 bd 60 95 d9 3d 6f 43 52 be
       0.08606238 -0.04762334 0.10624194 -0.20533536
000240 de ff 99 bd 71 44 91 bd 56 82 b3 bd 27 03 14 be
       -0.07519506 -0.07093132 -0.08765094 -0.14454328
000250 84 af 39 be 33 da ce 3d 54 37 79 3d bd 12 1f be
       -0.1813336 0.10100212 0.06084378 -0.15534492
000260 fe db 4f 3e bd aa 9d bc be 3a 97 bd ad 98 81 bc
       0.20298764 -0.019246453 -0.07384251 -0.015819872
000270 8c 28 b8 3d 65 bb 33 bd da 55 c6 3d a5 c1 3c 3e
       0.08992109 -0.043879885 0.09684344 0.18433245
000280 03 73 39 be a0 dc 34 be 34 a9 b8 3d 5f a9 92 bd
       -0.1811028 -0.17662287 0.09016648 -0.07161211
000290 76 2f 8c bc 1b 09 eb bd 14 14 5b bc b9 dd f7 bc
       -0.017112475 -0.11476346 -0.013371486 -0.030257093
0002a0 a2 ff 25 3e 35 f4 d7 3d 0d 24 b4 bd 83 70 00 3e
       0.16210797 0.10544626 -0.08795939 0.1254292
0002b0 97 ff e1 bd e4 62 0c be 1c 52 26 3e 46 13 ac bd
       -0.11035078 -0.13709599 0.1624226 -0.084021136
0002c0 f5 72 85 3d 42 3a 55 3e 58 da d0 bc 38 ef 9d 3c
       0.06516067 0.20823005 -0.02549474 0.019279107
0002d0 20 58 fd bd 16 6c af bd 65 c7 30 3e ad 38 e7 3d
       -0.12370324 -0.08565538 0.17263563 0.11290107
0002e0 5c 03 8f 3d 09 6b d7 bd 84 85 20 3e bd c4 25 be
       0.069830626 -0.10518462 0.15675932 -0.16188331
0002f0 4f 82 a8 bd 7a 96 00 3d d9 8e ea 3b 9b 89 56 bd
       -0.082279794 0.031393506 0.007158142 -0.052377325
000300 d4 2d 4d bd 6f 29 5f be 7b 2d 19 be 07 96 9d bd
       -0.050092533 -0.2179315 -0.14958756 -0.07694631
000310 7b f5 3b 3d a9 c7 27 bd ec 89 25 be a8 54 37 be
       0.045888405 -0.040961895 -0.16165894 -0.17903388
000320 f9 db 9c bd d4 bc 26 3e ae 27 b9 bd de 60 72 be
       -0.07659144 0.1628297 -0.090407714 -0.23669764
000330 d7 3f 80 3d 2b f0 b4 bb fd af 86 3d 4d 92 47 be
       0.062621765 -0.0055217943 0.06576536 -0.19489403
000340 74 ed fd 3c 14 15 37 be de b2 e1 3d f8 70 0b be
       0.030997016 -0.17879134 0.11020444 -0.13617313
000350 aa af 7f bd 7a 14 6e be ac 77 dd 3d f0 15 46 bd
       -0.062423386 -0.23249999 0.10813841 -0.048360765
000360 53 c4 bb 3d 2c 93 36 be d7 a6 f2 3c 5c 43 ba 3c
       0.09168305 -0.17829579 0.029620571 0.022737198
000370 7b 2e ad 3d 11 00 de 3d 79 1d c7 be a4 b6 4b 3c
       0.08456131 0.108398564 -0.38889673 0.012433682
000380 49 0b 11 3e 05 70 92 bc 44 be 59 be b1 59 c8 3c
       0.14164461 -0.01787568 -0.21263987 0.02445683
000390 04 b3 33 3e 76 7b 40 3e 05 7a 1d 3e a1 f2 a1 bd
       0.17548758 0.18797097 0.15378578 -0.07907606
0003a0 60 f4 2a 3e 6d d5 b8 bd 4c 5a 1b 3d 03 97 32 be
       0.16694784 -0.09025083 0.03792791 -0.17440419
0003b0 b2 70 15 3e d0 5a 1f 3e 6a 37 10 3e 2d 70 46 bc
       0.14593771 0.15561986 0.14083639 -0.012111706
0003c0 64 bb 27 3e fc bc a6 be 75 dd 48 be 34 3b 1f 3e
       0.16380078 -0.3256606 -0.19615729 0.15549928
0003d0 ac 5b e0 bd fc 53 ad 3d 11 55 04 3e 8f 83 b7 3d
       -0.10954985 0.084632844 0.12923075 0.0896064
0003e0 b6 c6 d4 3d e3 13 ed bb b8 39 13 be 2c 68 23 3e
       0.103894636 -0.0072350367 -0.14377487 0.15957707
0003f0 af d6 d6 3d b4 3c 9a bd c7 e1 77 bd ee cf 00 3e
       0.104901664 -0.075311095 -0.060518052 0.12579319

fc2.bias f4 [10]
000000 fd 5e 86 bd 8d 51 9c 3d 70 88 d4 3c e3 f2 03 bd
       -0.06561086 0.07632742 0.025943965 -0.032214057
000010 67 e4 5e bd 31 3c 28 3e dc 73 1d bd f7 f4 44 3d
       -0.05441704 0.16429211 -0.03844057 0.04808518
000020 bc 3f 0f be 91 b8 5e 3d
       -0.13989156 0.054375235
